…
Note: 1. A module can have torch.nn.module or torch.nn.functional to compute logits (e.g. CrossEntropyLoss). 
 They are not counted as submodules in calflops and not to be printed out. However they make up the difference between a parent's MACs and the sum of its submodules'.
2. Number of floating-point operations is a theoretical estimation, thus FLOPS computed using that could be larger than the maximum system throughput.

Model(
  31.12 M = 100% Params, 17.91 GMACs = 100% MACs, 35.97 GFLOPS = 49.7965% FLOPs
  (conv1): Sequential(
    2.83 K = 0.0091% Params, 717.23 MMACs = 4.0047% MACs, 1.47 GFLOPS = 1.9942% FLOPs
    (0): Conv2d(448 = 0.0014% Params, 113.25 MMACs = 0.6323% MACs, 230.69 MFLOPS = 0.3149% FLOPs, 3, 16, kernel_size=(3, 3), stride=(1, 1), padding=(1, 1))
    (1): BatchNorm2d(32 = 0.0001% Params, 0 MACs = 0% MACs, 8.39 MFLOPS = 0% FLOPs, 16, eps=1e-05, momentum=0.1, affine=True, track_running_stats=True)
    (2): ReLU(0 = 0% Params, 0 MACs = 0% MACs, 4.19 MFLOPS = 0% FLOPs, inplace=True)
    (3): Conv2d(2.32 K = 0.0075% Params, 603.98 MMACs = 3.3724% MACs, 1.21 GFLOPS = 1.6793% FLOPs, 16, 16, kernel_size=(3, 3), stride=(1, 1), padding=(1, 1))
    (4): BatchNorm2d(32 = 0.0001% Params, 0 MACs = 0% MACs, 8.39 MFLOPS = 0% FLOPs, 16, eps=1e-05, momentum=0.1, affine=True, track_running_stats=True)
    (5): ReLU(0 = 0% Params, 0 MACs = 0% MACs, 4.19 MFLOPS = 0% FLOPs, inplace=True)
  )
  (conv2): Sequential(
    14.02 K = 0.045% Params, 905.97 MMACs = 5.0585% MACs, 1.83 GFLOPS = 2.519% FLOPs
    (0): Conv2d(4.64 K = 0.0149% Params, 301.99 MMACs = 1.6862% MACs, 606.08 MFLOPS = 0.8397% FLOPs, 16, 32, kernel_size=(3, 3), stride=(1, 1), padding=(1, 1))
    (1): BatchNorm2d(64 = 0.0002% Params, 0 MACs = 0% MACs, 4.19 MFLOPS = 0% FLOPs, 32, eps=1e-05, momentum=0.1, affine=True, track_running_stats=True)
    (2): ReLU(0 = 0% Params, 0 MACs = 0% MACs, 2.1 MFLOPS = 0% FLOPs, inplace=True)
    (3): Conv2d(9.25 K = 0.0297% Params, 603.98 MMACs = 3.3724% MACs, 1.21 GFLOPS = 1.6793% FLOPs, 32, 32, kernel_size=(3, 3), stride=(1, 1), padding=(1, 1))
    (4): BatchNorm2d(64 = 0.0002% Params, 0 MACs = 0% MACs, 4.19 MFLOPS = 0% FLOPs, 32, eps=1e-05, momentum=0.1, affine=True, track_running_stats=True)
    (5): ReLU(0 = 0% Params, 0 MACs = 0% MACs, 2.1 MFLOPS = 0% FLOPs, inplace=True)
  )
  (conv3): Sequential(
    55.68 K = 0.1789% Params, 905.97 MMACs = 5.0585% MACs, 1.82 GFLOPS = 2.519% FLOPs
    (0): Conv2d(18.5 K = 0.0594% Params, 301.99 MMACs = 1.6862% MACs, 605.03 MFLOPS = 0.8397% FLOPs, 32, 64, kernel_size=(3, 3), stride=(1, 1), padding=(1, 1))
    (1): BatchNorm2d(128 = 0.0004% Params, 0 MACs = 0% MACs, 2.1 MFLOPS = 0% FLOPs, 64, eps=1e-05, momentum=0.1, affine=True, track_running_stats=True)
    (2): ReLU(0 = 0% Params, 0 MACs = 0% MACs, 1.05 MFLOPS = 0% FLOPs, inplace=True)
    (3): Conv2d(36.93 K = 0.1187% Params, 603.98 MMACs = 3.3724% MACs, 1.21 GFLOPS = 1.6793% FLOPs, 64, 64, kernel_size=(3, 3), stride=(1, 1), padding=(1, 1))
    (4): BatchNorm2d(128 = 0.0004% Params, 0 MACs = 0% MACs, 2.1 MFLOPS = 0% FLOPs, 64, eps=1e-05, momentum=0.1, affine=True, track_running_stats=True)
    (5): ReLU(0 = 0% Params, 0 MACs = 0% MACs, 1.05 MFLOPS = 0% FLOPs, inplace=True)
  )
  (conv4): Sequential(
    221.95 K = 0.7132% Params, 905.97 MMACs = 5.0585% MACs, 1.82 GFLOPS = 2.519% FLOPs
    (0): Conv2d(73.86 K = 0.2373% Params, 301.99 MMACs = 1.6862% MACs, 604.5 MFLOPS = 0.8397% FLOPs, 64, 128, kernel_size=(3, 3), stride=(1, 1), padding=(1, 1))
    (1): BatchNorm2d(256 = 0.0008% Params, 0 MACs = 0% MACs, 1.05 MFLOPS = 0% FLOPs, 128, eps=1e-05, momentum=0.1, affine=True, track_running_stats=True)
    (2): ReLU(0 = 0% Params, 0 MACs = 0% MACs, 524.29 KFLOPS = 0% FLOPs, inplace=True)
    (3): Conv2d(147.58 K = 0.4742% Params, 603.98 MMACs = 3.3724% MACs, 1.21 GFLOPS = 1.6793% FLOPs, 128, 128, kernel_size=(3, 3), stride=(1, 1), padding=(1, 1))
    (4): BatchNorm2d(256 = 0.0008% Params, 0 MACs = 0% MACs, 1.05 MFLOPS = 0% FLOPs, 128, eps=1e-05, momentum=0.1, affine=True, track_running_stats=True)
    (5): ReLU(0 = 0% Params, 0 MACs = 0% MACs, 524.29 KFLOPS = 0% FLOPs, inplace=True)
  )
  (conv5): Sequential(
    886.27 K = 2.8477% Params, 905.97 MMACs = 5.0585% MACs, 1.81 GFLOPS = 2.519% FLOPs
    (0): Conv2d(295.17 K = 0.9484% Params, 301.99 MMACs = 1.6862% MACs, 604.24 MFLOPS = 0.8397% FLOPs, 128, 256, kernel_size=(3, 3), stride=(1, 1), padding=(1, 1))
    (1): BatchNorm2d(512 = 0.0016% Params, 0 MACs = 0% MACs, 524.29 KFLOPS = 0% FLOPs, 256, eps=1e-05, momentum=0.1, affine=True, track_running_stats=True)
    (2): ReLU(0 = 0% Params, 0 MACs = 0% MACs, 262.14 KFLOPS = 0% FLOPs, inplace=True)
    (3): Conv2d(590.08 K = 1.896% Params, 603.98 MMACs = 3.3724% MACs, 1.21 GFLOPS = 1.6793% FLOPs, 256, 256, kernel_size=(3, 3), stride=(1, 1), padding=(1, 1))
    (4): BatchNorm2d(512 = 0.0016% Params, 0 MACs = 0% MACs, 524.29 KFLOPS = 0% FLOPs, 256, eps=1e-05, momentum=0.1, affine=True, track_running_stats=True)
    (5): ReLU(0 = 0% Params, 0 MACs = 0% MACs, 262.14 KFLOPS = 0% FLOPs, inplace=True)
  )
  (conv6): Sequential(
    3.54 M = 11.3809% Params, 905.97 MMACs = 5.0585% MACs, 1.81 GFLOPS = 2.519% FLOPs
    (0): Conv2d(1.18 M = 3.792% Params, 301.99 MMACs = 1.6862% MACs, 604.11 MFLOPS = 0.8397% FLOPs, 256, 512, kernel_size=(3, 3), stride=(1, 1), padding=(1, 1))
    (1): BatchNorm2d(1.02 K = 0.0033% Params, 0 MACs = 0% MACs, 262.14 KFLOPS = 0% FLOPs, 512, eps=1e-05, momentum=0.1, affine=True, track_running_stats=True)
    (2): ReLU(0 = 0% Params, 0 MACs = 0% MACs, 131.07 KFLOPS = 0% FLOPs, inplace=True)
    (3): Conv2d(2.36 M = 7.5823% Params, 603.98 MMACs = 3.3724% MACs, 1.21 GFLOPS = 1.6793% FLOPs, 512, 512, kernel_size=(3, 3), stride=(1, 1), padding=(1, 1))
    (4): BatchNorm2d(1.02 K = 0.0033% Params, 0 MACs = 0% MACs, 262.14 KFLOPS = 0% FLOPs, 512, eps=1e-05, momentum=0.1, affine=True, track_running_stats=True)
    (5): ReLU(0 = 0% Params, 0 MACs = 0% MACs, 131.07 KFLOPS = 0% FLOPs, inplace=True)
  )
  (max): MaxPool2d(0 = 0% Params, 0 MACs = 0% MACs, 8.26 MFLOPS = 0% FLOPs, kernel_size=2, stride=2, padding=0, dilation=1, ceil_mode=False)
  (bottleneck): Sequential(
    16.26 M = 52.2439% Params, 1.04 GMACs = 5.808% MACs, 2.08 GFLOPS = 2.8922% FLOPs
    (0): Conv2d(4.72 M = 15.1647% Params, 301.99 MMACs = 1.6862% MACs, 604.05 MFLOPS = 0.8397% FLOPs, 512, 1024, kernel_size=(3, 3), stride=(1, 1), padding=(1, 1))
    (1): BatchNorm2d(2.05 K = 0.0066% Params, 0 MACs = 0% MACs, 131.07 KFLOPS = 0% FLOPs, 1024, eps=1e-05, momentum=0.1, affine=True, track_running_stats=True)
    (2): ReLU(0 = 0% Params, 0 MACs = 0% MACs, 65.54 KFLOPS = 0% FLOPs, inplace=True)
    (3): Conv2d(9.44 M = 30.326% Params, 603.98 MMACs = 3.3724% MACs, 1.21 GFLOPS = 1.6793% FLOPs, 1024, 1024, kernel_size=(3, 3), stride=(1, 1), padding=(1, 1))
    (4): BatchNorm2d(2.05 K = 0.0066% Params, 0 MACs = 0% MACs, 131.07 KFLOPS = 0% FLOPs, 1024, eps=1e-05, momentum=0.1, affine=True, track_running_stats=True)
    (5): ReLU(0 = 0% Params, 0 MACs = 0% MACs, 65.54 KFLOPS = 0% FLOPs, inplace=True)
    (6): ConvTranspose2d(2.1 M = 6.74% Params, 134.22 MMACs = 0.7494% MACs, 268.44 MFLOPS = 0.3732% FLOPs, 1024, 512, kernel_size=(2, 2), stride=(2, 2))
  )
  (upconv5): Sequential(
    7.61 M = 24.4373% Params, 1.95 GMACs = 10.8665% MACs, 3.89 GFLOPS = 5.4111% FLOPs
    (0): Conv2d(4.72 M = 15.163% Params, 1.21 GMACs = 6.7447% MACs, 2.42 GFLOPS = 3.3586% FLOPs, 1024, 512, kernel_size=(3, 3), stride=(1, 1), padding=(1, 1))
    (1): BatchNorm2d(1.02 K = 0.0033% Params, 0 MACs = 0% MACs, 262.14 KFLOPS = 0% FLOPs, 512, eps=1e-05, momentum=0.1, affine=True, track_running_stats=True)
    (2): ReLU(0 = 0% Params, 0 MACs = 0% MACs, 131.07 KFLOPS = 0% FLOPs, inplace=True)
    (3): Conv2d(2.36 M = 7.5823% Params, 603.98 MMACs = 3.3724% MACs, 1.21 GFLOPS = 1.6793% FLOPs, 512, 512, kernel_size=(3, 3), stride=(1, 1), padding=(1, 1))
    (4): BatchNorm2d(1.02 K = 0.0033% Params, 0 MACs = 0% MACs, 262.14 KFLOPS = 0% FLOPs, 512, eps=1e-05, momentum=0.1, affine=True, track_running_stats=True)
    (5): ReLU(0 = 0% Params, 0 MACs = 0% MACs, 131.07 KFLOPS = 0% FLOPs, inplace=True)
    (6): ConvTranspose2d(524.54 K = 1.6854% Params, 134.22 MMACs = 0.7494% MACs, 268.45 MFLOPS = 0.3732% FLOPs, 512, 256, kernel_size=(2, 2), stride=(2, 2))
  )
  (upconv4): Sequential(
    1.9 M = 6.112% Params, 1.95 GMACs = 10.8665% MACs, 3.89 GFLOPS = 5.4111% FLOPs
    (0): Conv2d(1.18 M = 3.7912% Params, 1.21 GMACs = 6.7447% MACs, 2.42 GFLOPS = 3.3586% FLOPs, 512, 256, kernel_size=(3, 3), stride=(1, 1), padding=(1, 1))
    (1): BatchNorm2d(512 = 0.0016% Params, 0 MACs = 0% MACs, 524.29 KFLOPS = 0% FLOPs, 256, eps=1e-05, momentum=0.1, affine=True, track_running_stats=True)
    (2): ReLU(0 = 0% Params, 0 MACs = 0% MACs, 262.14 KFLOPS = 0% FLOPs, inplace=True)
    (3): Conv2d(590.08 K = 1.896% Params, 603.98 MMACs = 3.3724% MACs, 1.21 GFLOPS = 1.6793% FLOPs, 256, 256, kernel_size=(3, 3), stride=(1, 1), padding=(1, 1))
    (4): BatchNorm2d(512 = 0.0016% Params, 0 MACs = 0% MACs, 524.29 KFLOPS = 0% FLOPs, 256, eps=1e-05, momentum=0.1, affine=True, track_running_stats=True)
    (5): ReLU(0 = 0% Params, 0 MACs = 0% MACs, 262.14 KFLOPS = 0% FLOPs, inplace=True)
    (6): ConvTranspose2d(131.2 K = 0.4216% Params, 134.22 MMACs = 0.7494% MACs, 268.47 MFLOPS = 0.3732% FLOPs, 256, 128, kernel_size=(2, 2), stride=(2, 2))
  )
  (upconv3): Sequential(
    475.97 K = 1.5293% Params, 1.95 GMACs = 10.8665% MACs, 3.9 GFLOPS = 5.4111% FLOPs
    (0): Conv2d(295.04 K = 0.948% Params, 1.21 GMACs = 6.7447% MACs, 2.42 GFLOPS = 3.3586% FLOPs, 256, 128, kernel_size=(3, 3), stride=(1, 1), padding=(1, 1))
    (1): BatchNorm2d(256 = 0.0008% Params, 0 MACs = 0% MACs, 1.05 MFLOPS = 0% FLOPs, 128, eps=1e-05, momentum=0.1, affine=True, track_running_stats=True)
    (2): ReLU(0 = 0% Params, 0 MACs = 0% MACs, 524.29 KFLOPS = 0% FLOPs, inplace=True)
    (3): Conv2d(147.58 K = 0.4742% Params, 603.98 MMACs = 3.3724% MACs, 1.21 GFLOPS = 1.6793% FLOPs, 128, 128, kernel_size=(3, 3), stride=(1, 1), padding=(1, 1))
    (4): BatchNorm2d(256 = 0.0008% Params, 0 MACs = 0% MACs, 1.05 MFLOPS = 0% FLOPs, 128, eps=1e-05, momentum=0.1, affine=True, track_running_stats=True)
    (5): ReLU(0 = 0% Params, 0 MACs = 0% MACs, 524.29 KFLOPS = 0% FLOPs, inplace=True)
    (6): ConvTranspose2d(32.83 K = 0.1055% Params, 134.22 MMACs = 0.7494% MACs, 268.5 MFLOPS = 0.3732% FLOPs, 128, 64, kernel_size=(2, 2), stride=(2, 2))
  )
  (upconv2): Sequential(
    119.2 K = 0.383% Params, 1.95 GMACs = 10.8665% MACs, 3.9 GFLOPS = 5.4111% FLOPs
    (0): Conv2d(73.79 K = 0.2371% Params, 1.21 GMACs = 6.7447% MACs, 2.42 GFLOPS = 3.3586% FLOPs, 128, 64, kernel_size=(3, 3), stride=(1, 1), padding=(1, 1))
    (1): BatchNorm2d(128 = 0.0004% Params, 0 MACs = 0% MACs, 2.1 MFLOPS = 0% FLOPs, 64, eps=1e-05, momentum=0.1, affine=True, track_running_stats=True)
    (2): ReLU(0 = 0% Params, 0 MACs = 0% MACs, 1.05 MFLOPS = 0% FLOPs, inplace=True)
    (3): Conv2d(36.93 K = 0.1187% Params, 603.98 MMACs = 3.3724% MACs, 1.21 GFLOPS = 1.6793% FLOPs, 64, 64, kernel_size=(3, 3), stride=(1, 1), padding=(1, 1))
    (4): BatchNorm2d(128 = 0.0004% Params, 0 MACs = 0% MACs, 2.1 MFLOPS = 0% FLOPs, 64, eps=1e-05, momentum=0.1, affine=True, track_running_stats=True)
    (5): ReLU(0 = 0% Params, 0 MACs = 0% MACs, 1.05 MFLOPS = 0% FLOPs, inplace=True)
    (6): ConvTranspose2d(8.22 K = 0.0264% Params, 134.22 MMACs = 0.7494% MACs, 268.57 MFLOPS = 0.3732% FLOPs, 64, 32, kernel_size=(2, 2), stride=(2, 2))
  )
  (upconv1): Sequential(
    29.9 K = 0.0961% Params, 1.95 GMACs = 10.8665% MACs, 3.91 GFLOPS = 5.4111% FLOPs
    (0): Conv2d(18.46 K = 0.0593% Params, 1.21 GMACs = 6.7447% MACs, 2.42 GFLOPS = 3.3586% FLOPs, 64, 32, kernel_size=(3, 3), stride=(1, 1), padding=(1, 1))
    (1): BatchNorm2d(64 = 0.0002% Params, 0 MACs = 0% MACs, 4.19 MFLOPS = 0% FLOPs, 32, eps=1e-05, momentum=0.1, affine=True, track_running_stats=True)
    (2): ReLU(0 = 0% Params, 0 MACs = 0% MACs, 2.1 MFLOPS = 0% FLOPs, inplace=True)
    (3): Conv2d(9.25 K = 0.0297% Params, 603.98 MMACs = 3.3724% MACs, 1.21 GFLOPS = 1.6793% FLOPs, 32, 32, kernel_size=(3, 3), stride=(1, 1), padding=(1, 1))
    (4): BatchNorm2d(64 = 0.0002% Params, 0 MACs = 0% MACs, 4.19 MFLOPS = 0% FLOPs, 32, eps=1e-05, momentum=0.1, affine=True, track_running_stats=True)
    (5): ReLU(0 = 0% Params, 0 MACs = 0% MACs, 2.1 MFLOPS = 0% FLOPs, inplace=True)
    (6): ConvTranspose2d(2.06 K = 0.0066% Params, 134.22 MMACs = 0.7494% MACs, 268.7 MFLOPS = 0.3732% FLOPs, 32, 16, kernel_size=(2, 2), stride=(2, 2))
  )
  (conv_out): Sequential(
    7.01 K = 0.0225% Params, 1.81 GMACs = 10.1171% MACs, 3.66 GFLOPS = 5.038% FLOPs
    (0): Conv2d(4.62 K = 0.0149% Params, 1.21 GMACs = 6.7447% MACs, 2.42 GFLOPS = 3.3586% FLOPs, 32, 16, kernel_size=(3, 3), stride=(1, 1), padding=(1, 1))
    (1): BatchNorm2d(32 = 0.0001% Params, 0 MACs = 0% MACs, 8.39 MFLOPS = 0% FLOPs, 16, eps=1e-05, momentum=0.1, affine=True, track_running_stats=True)
    (2): ReLU(0 = 0% Params, 0 MACs = 0% MACs, 4.19 MFLOPS = 0% FLOPs, inplace=True)
    (3): Conv2d(2.32 K = 0.0075% Params, 603.98 MMACs = 3.3724% MACs, 1.21 GFLOPS = 1.6793% FLOPs, 16, 16, kernel_size=(3, 3), stride=(1, 1), padding=(1, 1))
    (4): BatchNorm2d(32 = 0.0001% Params, 0 MACs = 0% MACs, 8.39 MFLOPS = 0% FLOPs, 16, eps=1e-05, momentum=0.1, affine=True, track_running_stats=True)
    (5): ReLU(0 = 0% Params, 0 MACs = 0% MACs, 4.19 MFLOPS = 0% FLOPs, inplace=True)
  )
  (output): Conv2d(323 = 0.001% Params, 79.69 MMACs = 0.445% MACs, 164.36 MFLOPS = 0.2216% FLOPs, 16, 19, kernel_size=(1, 1), stride=(1, 1))
)
---------------------------------------------------------------------------------------------------
---------
0
---------
---------
1
---------
---------
2
---------
---------
3
---------
---------
4
---------
---------
5
---------
---------
6
---------
---------
7
---------
---------
…
